Downloading https://www.cs.toronto.edu/~kriz/cifar-10-python.tar.gz to ./data/cifar/cifar-10-python.tar.gz
Files already downloaded and verified
Sampled IID workers
CNNCifar(
  (conv1): Conv2d(3, 6, kernel_size=(5, 5), stride=(1, 1))
  (pool): MaxPool2d(kernel_size=2, stride=2, padding=0, dilation=1, ceil_mode=False)
  (conv2): Conv2d(6, 16, kernel_size=(5, 5), stride=(1, 1))
  (fc1): Linear(in_features=400, out_features=120, bias=True)
  (fc2): Linear(in_features=120, out_features=84, bias=True)
  (fc3): Linear(in_features=84, out_features=10, bias=True)
)
chosen workers [88 61  1 22 78 42 58 40 53 10]
Round   0, Average loss 2.293
Training accuracy: 20.00
Testing accuracy: 19.00
chosen workers [81  6 40 62 88 21 20 28 23 99]
Round   1, Average loss 2.212
Training accuracy: 26.00
Testing accuracy: 25.00
Files already downloaded and verified
Files already downloaded and verified
Sampled IID workers
CNNCifar(
  (conv1): Conv2d(3, 6, kernel_size=(5, 5), stride=(1, 1))
  (pool): MaxPool2d(kernel_size=2, stride=2, padding=0, dilation=1, ceil_mode=False)
  (conv2): Conv2d(6, 16, kernel_size=(5, 5), stride=(1, 1))
  (fc1): Linear(in_features=400, out_features=120, bias=True)
  (fc2): Linear(in_features=120, out_features=84, bias=True)
  (fc3): Linear(in_features=84, out_features=10, bias=True)
)
chosen workers [36 72  0 10 66 96  2 80 43 63]
Round   0, Average loss 2.298
Training accuracy: 15.00
Testing accuracy: 15.00
chosen workers [ 9 86 24 39 50 92  6 38 53 14]
Round   1, Average loss 2.284
Training accuracy: 17.00
Testing accuracy: 17.00
chosen workers [58 41 87 76 39 99 74 25 55 62]
Round   2, Average loss 2.191
Training accuracy: 24.00
Testing accuracy: 24.00
…
chosen workers [ 1 28 98 67 24 79 57 13 31 91]
Round  16, Average loss 1.090
Training accuracy: 54.00
Testing accuracy: 49.00
chosen workers [31 14 29 25 49 85  7 95 18 51]
Round  17, Average loss 1.062
Training accuracy: 54.00
Testing accuracy: 49.00
chosen workers [49 59 78 81 28 19 53 57 48  9]
Round  18, Average loss 0.960
Training accuracy: 56.00
Testing accuracy: 49.00
chosen workers [16 18 59 10 32 41 74 98  1 21]
Round  19, Average loss 0.888
Training accuracy: 56.00
Testing accuracy: 50.00
Files already downloaded and verified
Files already downloaded and verified
Sampled IID workers
CNNCifar(
  (conv1): Conv2d(3, 6, kernel_size=(5, 5), stride=(1, 1))
  (pool): MaxPool2d(kernel_size=2, stride=2, padding=0, dilation=1, ceil_mode=False)
  (conv2): Conv2d(6, 16, kernel_size=(5, 5), stride=(1, 1))
  (fc1): Linear(in_features=400, out_features=120, bias=True)
  (fc2): Linear(in_features=120, out_features=84, bias=True)
  (fc3): Linear(in_features=84, out_features=10, bias=True)
)
chosen workers [15 67 33 61 95 24 25 72 70 38]
Round   0, Average loss 2.298
Training accuracy: 10.00
Testing accuracy: 10.00
chosen workers [28 67 17 10  7  8 50 32 89 13]
Round   1, Average loss 2.291
Training accuracy: 12.00
Testing accuracy: 12.00
chosen workers [86 30 66 33 23 61 48 11  2 58]
Round   2, Average loss 2.225
Training accuracy: 24.00
Testing accuracy: 23.00
…
