Downloading https://www.cs.toronto.edu/~kriz/cifar-10-python.tar.gz to ./data/cifar/cifar-10-python.tar.gz
Files already downloaded and verified
Sampled IID workers
CNNCifar(
  (conv1): Conv2d(3, 6, kernel_size=(5, 5), stride=(1, 1))
  (pool): MaxPool2d(kernel_size=2, stride=2, padding=0, dilation=1, ceil_mode=False)
  (conv2): Conv2d(6, 16, kernel_size=(5, 5), stride=(1, 1))
  (fc1): Linear(in_features=400, out_features=120, bias=True)
  (fc2): Linear(in_features=120, out_features=84, bias=True)
  (fc3): Linear(in_features=84, out_features=10, bias=True)
)
chosen workers [88 61  1 22 78 42 58 40 53 10]
Round   0, Average loss 2.293
Training accuracy: 20.00
Testing accuracy: 19.00
chosen workers [81  6 40 62 88 21 20 28 23 99]
Round   1, Average loss 2.212
Training accuracy: 26.00
Testing accuracy: 25.00
Files already downloaded and verified
Files already downloaded and verified
Sampled IID workers
CNNCifar(
  (conv1): Conv2d(3, 6, kernel_size=(5, 5), stride=(1, 1))
  (pool): MaxPool2d(kernel_size=2, stride=2, padding=0, dilation=1, ceil_mode=False)
  (conv2): Conv2d(6, 16, kernel_size=(5, 5), stride=(1, 1))
  (fc1): Linear(in_features=400, out_features=120, bias=True)
  (fc2): Linear(in_features=120, out_features=84, bias=True)
  (fc3): Linear(in_features=84, out_features=10, bias=True)
)
chosen workers [36 72  0 10 66 96  2 80 43 63]
Round   0, Average loss 2.298
Training accuracy: 15.00
Testing accuracy: 15.00
chosen workers [ 9 86 24 39 50 92  6 38 53 14]
Round   1, Average loss 2.284
Training accuracy: 17.00
Testing accuracy: 17.00
chosen workers [58 41 87 76 39 99 74 25 55 62]
Round   2, Average loss 2.191
Training accuracy: 24.00
Testing accuracy: 24.00
…
chosen workers [ 1 28 98 67 24 79 57 13 31 91]
Round  16, Average loss 1.090
Training accuracy: 54.00
Testing accuracy: 49.00
chosen workers [31 14 29 25 49 85  7 95 18 51]
Round  17, Average loss 1.062
Training accuracy: 54.00
Testing accuracy: 49.00
chosen workers [49 59 78 81 28 19 53 57 48  9]
Round  18, Average loss 0.960
Training accuracy: 56.00
Testing accuracy: 49.00
chosen workers [16 18 59 10 32 41 74 98  1 21]
Round  19, Average loss 0.888
Training accuracy: 56.00
Testing accuracy: 50.00
Files already downloaded and verified
Files already downloaded and verified
Sampled IID workers
CNNCifar(
  (conv1): Conv2d(3, 6, kernel_size=(5, 5), stride=(1, 1))
  (pool): MaxPool2d(kernel_size=2, stride=2, padding=0, dilation=1, ceil_mode=False)
  (conv2): Conv2d(6, 16, kernel_size=(5, 5), stride=(1, 1))
  (fc1): Linear(in_features=400, out_features=120, bias=True)
  (fc2): Linear(in_features=120, out_features=84, bias=True)
  (fc3): Linear(in_features=84, out_features=10, bias=True)
)
chosen workers [15 67 33 61 95 24 25 72 70 38]
Round   0, Average loss 2.298
Training accuracy: 10.00
Testing accuracy: 10.00
chosen workers [28 67 17 10  7  8 50 32 89 13]
Round   1, Average loss 2.291
Training accuracy: 12.00
Testing accuracy: 12.00
chosen workers [86 30 66 33 23 61 48 11  2 58]
Round   2, Average loss 2.225
Training accuracy: 24.00
Testing accuracy: 23.00
…
chosen workers [81 28 10 17 83 43 99 25 48 12]
Round 296, Average loss 0.198
Training accuracy: 84.00
Testing accuracy: 55.00
chosen workers [30 17 29  5 83 61 42 95 18 37]
Round 297, Average loss 0.155
Training accuracy: 86.00
Testing accuracy: 55.00
chosen workers [67 59 39 52 70 29 18 28 16 13]
Round 298, Average loss 0.216
Training accuracy: 81.00
Testing accuracy: 55.00
chosen workers [ 7 68 55 75 39 35 78 63 17 13]
Round 299, Average loss 0.222
Training accuracy: 82.00
Testing accuracy: 55.00
Files already downloaded and verified
Files already downloaded and verified
Sampled IID workers
VGG(
  (features): Sequential(
    (0): Conv2d(3, 64, kernel_size=(3, 3), stride=(1, 1), padding=(1, 1))
    (1): BatchNorm2d(64, eps=1e-05, momentum=0.1, affine=True, track_running_stats=True)
    (2): ReLU(inplace)
    (3): MaxPool2d(kernel_size=2, stride=2, padding=0, dilation=1, ceil_mode=False)
    (4): Conv2d(64, 128, kernel_size=(3, 3), stride=(1, 1), padding=(1, 1))
    (5): BatchNorm2d(128, eps=1e-05, momentum=0.1, affine=True, track_running_stats=True)
    (6): ReLU(inplace)
    (7): MaxPool2d(kernel_size=2, stride=2, padding=0, dilation=1, ceil_mode=False)
    (8): Conv2d(128, 256, kernel_size=(3, 3), stride=(1, 1), padding=(1, 1))
    (9): BatchNorm2d(256, eps=1e-05, momentum=0.1, affine=True, track_running_stats=True)
    (10): ReLU(inplace)
    (11): Conv2d(256, 256, kernel_size=(3, 3), stride=(1, 1), padding=(1, 1))
    (12): BatchNorm2d(256, eps=1e-05, momentum=0.1, affine=True, track_running_stats=True)
    (13): ReLU(inplace)
    (14): MaxPool2d(kernel_size=2, stride=2, padding=0, dilation=1, ceil_mode=False)
    (15): Conv2d(256, 512, kernel_size=(3, 3), stride=(1, 1), padding=(1, 1))
    (16): BatchNorm2d(512, eps=1e-05, momentum=0.1, affine=True, track_running_stats=True)
    (17): ReLU(inplace)
    (18): Conv2d(512, 512, kernel_size=(3, 3), stride=(1, 1), padding=(1, 1))
    (19): BatchNorm2d(512, eps=1e-05, momentum=0.1, affine=True, track_running_stats=True)
    (20): ReLU(inplace)
    (21): MaxPool2d(kernel_size=2, stride=2, padding=0, dilation=1, ceil_mode=False)
    (22): Conv2d(512, 512, kernel_size=(3, 3), stride=(1, 1), padding=(1, 1))
    (23): BatchNorm2d(512, eps=1e-05, momentum=0.1, affine=True, track_running_stats=True)
    (24): ReLU(inplace)
    (25): Conv2d(512, 512, kernel_size=(3, 3), stride=(1, 1), padding=(1, 1))
    (26): BatchNorm2d(512, eps=1e-05, momentum=0.1, affine=True, track_running_stats=True)
    (27): ReLU(inplace)
    (28): MaxPool2d(kernel_size=2, stride=2, padding=0, dilation=1, ceil_mode=False)
    (29): AvgPool2d(kernel_size=1, stride=1, padding=0)
  )
  (classifier): Linear(in_features=512, out_features=10, bias=True)
)
chosen workers [90 28 94 71 98 85 11 92  4 18]
Round   0, Average loss 1.690
Training accuracy: 10.00
Testing accuracy: 10.00
chosen workers [47 23 56 53 37 72 84 66 67 95]
Round   1, Average loss 1.376
Files already downloaded and verified
Files already downloaded and verified
Sampled IID workers
CNNCifar(
  (conv1): Conv2d(3, 6, kernel_size=(5, 5), stride=(1, 1))
  (pool): MaxPool2d(kernel_size=2, stride=2, padding=0, dilation=1, ceil_mode=False)
  (conv2): Conv2d(6, 16, kernel_size=(5, 5), stride=(1, 1))
  (fc1): Linear(in_features=400, out_features=120, bias=True)
  (fc2): Linear(in_features=120, out_features=84, bias=True)
  (fc3): Linear(in_features=84, out_features=10, bias=True)
)
chosen workers [77 73 21 20 78 98 88  1 18 32]
Files already downloaded and verified
Files already downloaded and verified
Sampled IID workers
CNNCifar(
  (conv1): Conv2d(3, 6, kernel_size=(5, 5), stride=(1, 1))
  (pool): MaxPool2d(kernel_size=2, stride=2, padding=0, dilation=1, ceil_mode=False)
  (conv2): Conv2d(6, 16, kernel_size=(5, 5), stride=(1, 1))
  (fc1): Linear(in_features=400, out_features=120, bias=True)
  (fc2): Linear(in_features=120, out_features=84, bias=True)
  (fc3): Linear(in_features=84, out_features=10, bias=True)
)
chosen workers [ 9 71 84  1 46 66 95 53 78 43 52 77 35 48 59 51 12 68 94 13 75 21 32 76
 36 27 72 45 44 61 50 34 57 14 10 47 62 90  4 98  5 25 42 81 29 19 79 18
  0 91]
Files already downloaded and verified
Files already downloaded and verified
Sampled IID workers
CNNCifar(
  (conv1): Conv2d(3, 6, kernel_size=(5, 5), stride=(1, 1))
  (pool): MaxPool2d(kernel_size=2, stride=2, padding=0, dilation=1, ceil_mode=False)
  (conv2): Conv2d(6, 16, kernel_size=(5, 5), stride=(1, 1))
  (fc1): Linear(in_features=400, out_features=120, bias=True)
  (fc2): Linear(in_features=120, out_features=84, bias=True)
  (fc3): Linear(in_features=84, out_features=10, bias=True)
)
chosen workers [88 57  0 12 36 74 54 87 38 70  3 14 11  5 29 51 90 45 28 96 31 32 43 97
  4 27 16 25 40 66]
Round   0, Average loss 2.299
Training accuracy: 12.00
Testing accuracy: 12.00
chosen workers [65 63 92 10 67 54 21 43 32 73  3 81 18  4 42 64 26 56 19 48 72 37 55 31
  1 70 68 77 50 62]
Round   1, Average loss 2.292
Training accuracy: 16.00
Testing accuracy: 16.00
…
